my_model.pth (torch, 4571 bytes, 8 tensors)

model.0.weight f4 [10, 2]
0	0xbce44d43	-0.027868873
1	0xbb304c3b	-0.0026900906
2	0x3e94e7c1	0.29083064
3	0xbedb7479	-0.428623
4	0x3f4214cc	0.75812984
5	0x3d23315d	0.039842
6	0xbf0ce0a4	-0.55030274
7	0x3f3a2389	0.7271047
8	0xbf104b14	-0.5636456
9	0x3ec92995	0.39289537
10	0x3eb7a30b	0.3586658
11	0xbeec0bcf	-0.4610276
12	0x3e736210	0.23767877
13	0x3f46e2aa	0.7768961
14	0x3f2e4887	0.6807942
15	0xbe4d4e39	-0.20049371
16	0x3ecf05cb	0.40434107
17	0xbf13a966	-0.57680357
18	0xbe043f8b	-0.12914865
19	0x3e590413	0.2119296

model.0.bias f4 [10]
0	0x3f7f574f	0.997426
1	0x3f2ea4cb	0.68220204
2	0x3ef6be3a	0.48192006
3	0x3ecd9318	0.40151286
4	0x3f028f6f	0.5100011
5	0xbeb4d2f2	-0.35317189
6	0x3f675094	0.9035733
7	0x3f10c3e3	0.565489
8	0x3ee1c8c2	0.4409848
9	0xbecf298d	-0.40461388

model.2.weight f4 [10, 10]
0	0xbdcfb2bc	-0.10141513
1	0xbe95e9a9	-0.2927983
2	0xbe87304a	-0.2640403
3	0xbdd934b8	-0.106057584
4	0x3d3d93d5	0.04628356
5	0xbd40f15b	-0.047105175
6	0xbde3260e	-0.11091243
7	0xbe67307d	-0.2257709
8	0x3e76b2dd	0.24091668
9	0x3d9af138	0.0756554
10	0xbd713168	-0.058885008
11	0xbd96dbde	-0.07366155
12	0xbdf850b3	-0.12124767
13	0x3e97281b	0.29522786
14	0xbe5468d6	-0.20743117
15	0x3e24890b	0.16067903
16	0xbe15c8f3	-0.14627437
17	0xbe3269f1	-0.17423226
18	0xbe9abe2b	-0.30223212
19	0x3e76ee83	0.24114423
20	0xbdb10e9e	-0.08645366
21	0xbe41ef74	-0.18939
22	0x3c17d55f	0.00926718
23	0xbea73a3a	-0.3266161
24	0x3e857001	0.26062015
25	0x3e16068e	0.14650938
26	0xbe0a77be	-0.1352224
27	0x3dd9f1ad	0.10641799
28	0xbe92e6a2	-0.28691584
29	0x3cc4c336	0.024018865
30	0x3e0d06ab	0.13772075
31	0x3de597df	0.11210608
32	0x3e4d327e	0.20038792
33	0xbe449efb	-0.19201271
34	0xbe9c853d	-0.30570403
35	0x3e49389d	0.19650503
36	0xbe3203eb	-0.17384307
37	0xbe920553	-0.28519687
38	0xbe5c597d	-0.21518512
39	0xbe8ee8fa	-0.27912122
40	0x3e0a0b7c	0.13480943
41	0x3e11f84c	0.14254874
42	0xbe599328	-0.21247542
43	0x3e234f90	0.1594832
44	0x3e71be69	0.23607792
45	0x3df4c293	0.119511746
46	0xbbd3b5e9	-0.0064608944
47	0xbe9a82d5	-0.30177942
48	0xbe968191	-0.29395726
49	0x3e231045	0.15924175
50	0xbd64e867	-0.0558857
51	0xbe796b51	-0.24357344
52	0xbe68fbb5	-0.22752269
53	0xbe5b26b5	-0.21401484
54	0xbd53ce64	-0.0517105
55	0xbe2e73a2	-0.17036298
56	0x3e602cef	0.21892141
57	0xbe88a796	-0.26690358
58	0x3e09d25d	0.13459153
59	0x3e8d28fb	0.27570328
60	0x3f09afb2	0.53783715
61	0x3ec4b99d	0.38422862
62	0x3df8b17c	0.121432275
63	0xbf0ae93a	-0.54262125
64	0x3e0e822a	0.13916841
65	0x3e8846f0	0.2661662
66	0x3c8b0f7d	0.016975159
67	0x3e91fe65	0.285144
68	0x3e423737	0.18966375
69	0x3ddeef35	0.10885469
70	0x3d36fcf3	0.044674825
71	0xbe8f00a5	-0.2793018
72	0xbe7a6d12	-0.2445567
73	0x3f0d4970	0.5519018
74	0x3ed3b403	0.41348276
75	0x3db674bd	0.08908985
76	0x3e735615	0.23763306
77	0xbdc937d2	-0.098251
78	0x3d5cd1fa	0.053911187
79	0xbcdb0d39	-0.026739703
80	0xbe7a6ba4	-0.24455124
81	0xbe10ad4c	-0.14128608
82	0x3e3c04f0	0.18361259
83	0x3e85eef8	0.2615888
84	0x3e9040bd	0.2817439
85	0x3d058408	0.032596618
86	0xbc7c831f	-0.015412121
87	0xbd5fa018	-0.054596037
88	0xbe6489dd	-0.22318216
89	0x3e38eadd	0.18058343
90	0x3cf76347	0.030198706
91	0x3e2f1b06	0.17100152
92	0x3e24685a	0.16055432
93	0x3e23e4ea	0.16005293
94	0x3e32a62b	0.174462
95	0xbe85b90e	-0.26117748
96	0x3f0820e2	0.53175175
97	0x3eb5edb9	0.3553293
98	0xbe9f8ce4	-0.3116218
99	0xbe55ba09	-0.20871748

model.2.bias f4 [10]
0	0xbea0312a	-0.3128751
1	0xbe061955	-0.13095601
2	0x3d5d2a9e	0.05399572
3	0xbe297217	-0.16547428
4	0xbeb12090	-0.34595156
5	0x3d7e945e	0.062153213
6	0x3ed56d4e	0.41684955
7	0x3cc7d46d	0.024393285
8	0xbe804ad5	-0.25057092
9	0xbe1f87e4	-0.15579182

model.4.weight f4 [10, 10]
0	0x3c16a9d3	0.009195763
1	0x3d2fb206	0.042894386
2	0x3d55379f	0.052054998
3	0x3e119df2	0.14220408
4	0xbdca1688	-0.09867579
5	0xbddda247	-0.108219676
6	0xbdf9dde4	-0.122005254
7	0x3f011ec6	0.5043758
8	0x3cb01816	0.02149586
9	0x3ebfe1f5	0.3747708
10	0x3d0fbdc4	0.035093084
11	0x3e9deec6	0.30846232
12	0xbe9edc73	-0.31027564
13	0xbd6039a0	-0.054742455
14	0x3e88545c	0.2662686
15	0xbe8d9945	-0.27655998
16	0x3f064699	0.52451473
17	0xbf16c895	-0.58899814
18	0x3cc651bc	0.024208896
19	0xbe0399a9	-0.12851585
20	0xbe8747d9	-0.26422003
21	0xbe582a7a	-0.21109954
22	0x3e742595	0.23842461
23	0xbe904204	-0.28175366
24	0xbea06130	-0.31324148
25	0xbe9cc81d	-0.30621424
26	0xbe0cb501	-0.13740923
27	0x3ee7b750	0.45257044
28	0xbd864bfc	-0.065574616
29	0xbc5a45c4	-0.0133222975
30	0xbe258da3	-0.16167311
31	0xbe94edff	-0.29087827
32	0x3d76cc40	0.06025338
33	0xbdd2d010	-0.10293591
34	0xbdb45857	-0.08805912
35	0xbe747f68	-0.23876727
36	0x3dc0b6c5	0.094098605
37	0x3f022f20	0.5085316
38	0xbe886d0a	-0.2664569
39	0x3ebaee18	0.36509776
40	0xbe4c8c6f	-0.19975446
41	0x3e76627c	0.24061006
42	0x3cf58015	0.0299683
43	0x3d58d871	0.05294079
44	0xbd9fb120	-0.07797456
45	0x3e8875d7	0.26652405
46	0xbd807907	-0.06273084
47	0xbe9c1e46	-0.30491847
48	0xbe6f87ec	-0.23391694
49	0x3f1fb314	0.62382627
50	0xbe654a49	-0.22391619
51	0x3bc306ac	0.005951723
52	0x3e1d26a6	0.15346774
53	0xbce8ae7b	-0.028403511
54	0x3ddfe066	0.109314725
55	0xbe789a22	-0.24277547
56	0x3c370aa8	0.011171974
57	0x3dc981b5	0.09839193
58	0xbd2aea06	-0.04172709
59	0x3e9ce790	0.30645418
60	0x3dee8e25	0.11648206
61	0x3dd5bc6f	0.104363315
62	0xbe38d12e	-0.18048546
63	0xbcc6ee81	-0.02428365
64	0xbe29ed24	-0.16594368
65	0x3e9aea31	0.302568
66	0xbe9ddbbe	-0.30831712
67	0xbe1e7c17	-0.15477024
68	0x3c759e41	0.014991344
69	0x3e5614dc	0.20906395
70	0x3e6cc6d1	0.23122717
71	0xbe5be619	-0.21474494
72	0xbd8c9a72	-0.068653956
73	0x3e051374	0.12995702
74	0x3dcf395c	0.10118362
75	0x3e4089ff	0.18802641
76	0x3f10f6c4	0.56626534
77	0xbf02d717	-0.5110945
78	0xbdc2e40b	-0.09516152
79	0xbe8671d9	-0.26258734
80	0xbd6e8a08	-0.058237106
81	0x3e2337b5	0.1593922
82	0xbe5fb7f3	-0.21847515
83	0x3e38f1c0	0.1806097
84	0x3d9ff83f	0.07811021
85	0x3e130e7b	0.14360993
86	0x3d9b9cda	0.075982764
87	0xbe977121	-0.29578498
88	0x39368ae0	0.00017408608
89	0x3d6d64d9	0.057957504
90	0x3e6565cf	0.22402118
91	0xbe868a1b	-0.2627724
92	0xbd9eb2d4	-0.077489525
93	0xbe16f1a6	-0.14740619
94	0xbd8b0578	-0.067881525
95	0x3e20b31c	0.15693325
96	0x3c442d4a	0.011973688
97	0x3e8e4156	0.27784222
98	0xba9f086d	-0.0012133248
99	0x3ef98436	0.4873368

model.4.bias f4 [10]
0	0x3e4c7f79	0.19970502
1	0x3ecc361e	0.39885038
2	0x3e6661b0	0.22498202
3	0xbe1dd291	-0.15412356
4	0x3dd1f6f9	0.102521844
5	0xbc956adb	-0.01823943
6	0xbdee6f73	-0.11642351
7	0x3f03d6b7	0.51499504
8	0xbe67822c	-0.2260825
9	0xbca04cac	-0.01956781

model.6.weight f4 [2, 10]
0	0x3e33aef3	0.17547207
1	0xbe744e05	-0.23857887
2	0x3cd78c28	0.026311949
3	0x3ebc8472	0.36819798
4	0x3e4bb3fe	0.1989288
5	0x3ec401db	0.38282666
6	0xbce37800	-0.027767181
7	0xbf03d669	-0.5149904
8	0x3e632bae	0.22184631
9	0x3ec2318e	0.37928432
10	0x3e4ab844	0.19796854
11	0xbeaa9e44	-0.33323872
12	0x3e51a01c	0.20471233
13	0x3e62022c	0.22071141
14	0xbed9e0a6	-0.42554206
15	0xbdba6467	-0.091011815
16	0x3e60b228	0.21942961
17	0xbdbe224a	-0.09283884
18	0xbe0eb4c4	-0.13936144
19	0x3da4a6b3	0.08039608

model.6.bias f4 [2]
0	0x3d4d496f	0.05011886
1	0x3e9124d4	0.2834841
